…
2024-01-16 14:35:15 - INFO :       Start Pruning
2024-01-16 14:35:15 - INFO :       Use taylor pruner...
2024-01-16 14:35:15 - INFO :       Pruning Attention Layer = [3, 4, 5, 6, 7, 8, 9, 10, 11, 12, 13, 14, 15, 16, 17, 18, 19, 20, 21, 22, 23, 24, 25, 26, 27, 28, 29, 30]
2024-01-16 14:35:15 - INFO :       Pruning MLP Layer = [3, 4, 5, 6, 7, 8, 9, 10, 11, 12, 13, 14, 15, 16, 17, 18, 19, 20, 21, 22, 23, 24, 25, 26, 27, 28, 29, 30]
Rank: 1 | PID: 585408|
2024-01-16 14:35:19 - INFO :       Start Pruning
Rank: 0 | PID: 585407|
FullyShardedDataParallel(
  (_fsdp_wrapped_module): LlamaForCausalLM(
    (model): LlamaModel(
      (embed_tokens): Embedding(32000, 4096)
      (layers): ModuleList(
        (0-31): 32 x FullyShardedDataParallel(
          (_fsdp_wrapped_module): LlamaDecoderLayer(
            (self_attn): FullyShardedDataParallel(
              (_fsdp_wrapped_module): LlamaAttention(
                (q_proj): Linear(in_features=4096, out_features=4096, bias=False)
                (k_proj): Linear(in_features=4096, out_features=4096, bias=False)
                (v_proj): Linear(in_features=4096, out_features=4096, bias=False)
                (o_proj): Linear(in_features=4096, out_features=4096, bias=False)
                (rotary_emb): LlamaRotaryEmbedding()
              )
            )
            (mlp): FullyShardedDataParallel(
              (_fsdp_wrapped_module): LlamaMLP(
                (gate_proj): Linear(in_features=4096, out_features=11008, bias=False)
                (down_proj): Linear(in_features=11008, out_features=4096, bias=False)
                (up_proj): Linear(in_features=4096, out_features=11008, bias=False)
                (act_fn): SiLUActivation()
              )
            )
            (input_layernorm): LlamaRMSNorm()
            (post_attention_layernorm): LlamaRMSNorm()
          )
        )
      )
      (norm): LlamaRMSNorm()
    )
    (lm_head): Linear(in_features=4096, out_features=32000, bias=False)
  )
)
******************************
Loading Dataset
******************************
Generating Samples
******************************
Prepare Validation Dataset
2024-01-16 14:35:26 - INFO :       Start Backwarding in iterative steps = 0...
Parent ID | PID: 585408|
Before Evaluation
	 1 Before Forward
FullyShardedDataParallel(
  (_fsdp_wrapped_module): LlamaForCausalLM(
    (model): LlamaModel(
      (embed_tokens): Embedding(32000, 4096)
      (layers): ModuleList(
        (0-31): 32 x FullyShardedDataParallel(
          (_fsdp_wrapped_module): LlamaDecoderLayer(
            (self_attn): FullyShardedDataParallel(
              (_fsdp_wrapped_module): LlamaAttention(
                (q_proj): Linear(in_features=4096, out_features=4096, bias=False)
                (k_proj): Linear(in_features=4096, out_features=4096, bias=False)
                (v_proj): Linear(in_features=4096, out_features=4096, bias=False)
                (o_proj): Linear(in_features=4096, out_features=4096, bias=False)
                (rotary_emb): LlamaRotaryEmbedding()
              )
            )
            (mlp): FullyShardedDataParallel(
              (_fsdp_wrapped_module): LlamaMLP(
                (gate_proj): Linear(in_features=4096, out_features=11008, bias=False)
                (down_proj): Linear(in_features=11008, out_features=4096, bias=False)
                (up_proj): Linear(in_features=4096, out_features=11008, bias=False)
                (act_fn): SiLUActivation()
              )
            )
            (input_layernorm): LlamaRMSNorm()
            (post_attention_layernorm): LlamaRMSNorm()
          )
        )
      )
      (norm): LlamaRMSNorm()
    )
    (lm_head): Linear(in_features=4096, out_features=32000, bias=False)
  )
)
******************************
Loading Dataset
******************************
Generating Samples
******************************
Prepare Validation Dataset
2024-01-16 14:35:28 - INFO :       Start Backwarding in iterative steps = 0...
Parent ID | PID: 585407|
Before Evaluation
	 0 Before Forward
	 0 Before Backward	
 1 Before Backward
		  0 0 0After Backward 
…
