…
********************************************************************************************************************************************************************************************************

2023-12-15 17:56:37 - INFO :       DATASET: commonsense_qa
Single
Index 0
Loading checkpoint shards:   0%|          | 0/3 [00:00<?, ?it/s]Loading checkpoint shards:  33%|███▎      | 1/3 [00:01<00:02,  1.47s/it]Loading checkpoint shards:  67%|██████▋   | 2/3 [00:02<00:01,  1.41s/it]Loading checkpoint shards: 100%|██████████| 3/3 [00:03<00:00,  1.17s/it]Loading checkpoint shards: 100%|██████████| 3/3 [00:03<00:00,  1.24s/it]
2023-12-15 17:56:49 - INFO :       Use taylor pruner...
LlamaForCausalLM(
  (model): LlamaModel(
    (embed_tokens): Embedding(32000, 5120)
    (layers): ModuleList(
      (0-39): 40 x LlamaDecoderLayer(
        (self_attn): LlamaAttention(
          (q_proj): Linear(in_features=5120, out_features=5120, bias=False)
          (k_proj): Linear(in_features=5120, out_features=5120, bias=False)
          (v_proj): Linear(in_features=5120, out_features=5120, bias=False)
          (o_proj): Linear(in_features=5120, out_features=5120, bias=False)
          (rotary_emb): LlamaRotaryEmbedding()
        )
        (mlp): LlamaMLP(
          (gate_proj): Linear(in_features=5120, out_features=13824, bias=False)
          (down_proj): Linear(in_features=13824, out_features=5120, bias=False)
          (up_proj): Linear(in_features=5120, out_features=13824, bias=False)
          (act_fn): SiLUActivation()
        )
        (input_layernorm): LlamaRMSNorm()
        (post_attention_layernorm): LlamaRMSNorm()
      )
    )
    (norm): LlamaRMSNorm()
  )
  (lm_head): Linear(in_features=5120, out_features=32000, bias=False)
)
DataParallel(
  (module): LlamaForCausalLM(
    (model): LlamaModel(
      (embed_tokens): Embedding(32000, 5120)
      (layers): ModuleList(
        (0-39): 40 x LlamaDecoderLayer(
          (self_attn): LlamaAttention(
            (q_proj): Linear(in_features=5120, out_features=5120, bias=False)
            (k_proj): Linear(in_features=5120, out_features=5120, bias=False)
            (v_proj): Linear(in_features=5120, out_features=5120, bias=False)
            (o_proj): Linear(in_features=5120, out_features=5120, bias=False)
            (rotary_emb): LlamaRotaryEmbedding()
          )
          (mlp): LlamaMLP(
            (gate_proj): Linear(in_features=5120, out_features=13824, bias=False)
            (down_proj): Linear(in_features=13824, out_features=5120, bias=False)
            (up_proj): Linear(in_features=5120, out_features=13824, bias=False)
            (act_fn): SiLUActivation()
          )
          (input_layernorm): LlamaRMSNorm()
          (post_attention_layernorm): LlamaRMSNorm()
        )
      )
      (norm): LlamaRMSNorm()
    )
    (lm_head): Linear(in_features=5120, out_features=32000, bias=False)
  )
)
Traceback (most recent call last):
  File "/home/bhandk/MLNeuron/LLM-Pruner/LLMPruner/torch_pruning/dependency.py", line 679, in _trace
    out = model(*example_inputs)
  File "/home/bhandk/miniconda3/envs/MLNeuron/lib/python3.9/site-packages/torch/nn/modules/module.py", line 1501, in _call_impl
    return forward_call(*args, **kwargs)
  File "/home/bhandk/miniconda3/envs/MLNeuron/lib/python3.9/site-packages/torch/nn/parallel/data_parallel.py", line 171, in forward
…
